…
ell.execute_reply":"2024-04-29T17:38:02.055449Z","shell.execute_reply.started":"2024-04-24T05:52:51.209618Z"},"papermill":{"duration":0.07047,"end_time":"2024-04-29T17:38:02.055661","exception":false,"start_time":"2024-04-29T17:38:01.985191","status":"completed"},"tags":[]},"outputs":[{"name":"stdout","output_type":"stream","text":["Model: \"sequential\"\n","_________________________________________________________________\n","Layer (type)                 Output Shape              Param #   \n","=================================================================\n","conv2d (Conv2D)              (None, 150, 150, 32)      896       \n","_________________________________________________________________\n","max_pooling2d (MaxPooling2D) (None, 75, 75, 32)        0         \n","_________________________________________________________________\n","conv2d_1 (Conv2D)            (None, 75, 75, 64)        18496     \n","_________________________________________________________________\n","max_pooling2d_1 (MaxPooling2 (None, 37, 37, 64)        0         \n","_________________________________________________________________\n","flatten (Flatten)            (None, 87616)             0         \n","_________________________________________________________________\n","dense (Dense)                (None, 128)               11214976  \n","_________________________________________________________________\n","batch_normalization (BatchNo (None, 128)               512       \n","_________________________________________________________________\n","dropout (Dropout)            (None, 128)               0         \n","_________________________________________________________________\n","dense_1 (Dense)              (None, 64)                8256      \n","_________________________________________________________________\n","batch_normalization_1 (Batch (None, 64)                256       \n","_________________________________________________________________\n","dropout_1 (Dropout)          (None, 64)                0         \n","_________________________________________________________________\n","dense_2 (Dense)              (None, 1)                 65        \n","=================================================================\n","Total params: 11,243,457\n","Trainable params: 11,243,073\n","Non-trainable params: 384\n","_________________________________________________________________\n"]}],"source":["model.summary()"]},{"cell_type":"markdown","id":"12478d98","metadata":{"papermill":{"duration":0.052151,"end_time":"2024-04-29T17:38:02.163054
…
ll.execute_reply":"2024-04-29T17:50:09.756122Z","shell.execute_reply.started":"2024-04-24T06:05:04.00121Z"},"papermill":{"duration":0.184093,"end_time":"2024-04-29T17:50:09.756873","exception":false,"start_time":"2024-04-29T17:50:09.57278","status":"completed"},"tags":[]},"outputs":[{"name":"stdout","output_type":"stream","text":["Model: \"sequential_1\"\n","_________________________________________________________________\n","Layer (type)                 Output Shape              Param #   \n","=================================================================\n","conv2d_2 (Conv2D)            (None, 150, 150, 32)      896       \n","_________________________________________________________________\n","max_pooling2d_2 (MaxPooling2 (None, 75, 75, 32)        0         \n","_________________________________________________________________\n","conv2d_3 (Conv2D)            (None, 75, 75, 64)        18496     \n","_________________________________________________________________\n","max_pooling2d_3 (MaxPooling2 (None, 37, 37, 64)        0         \n","_________________________________________________________________\n","flatten_1 (Flatten)          (None, 87616)             0         \n","_________________________________________________________________\n","dense_3 (Dense)              (None, 128)               11214976  \n","_________________________________________________________________\n","dense_4 (Dense)              (None, 1)                 129       \n","=================================================================\n","Total params: 11,234,497\n","Trainable params: 11,234,497\n","Non-trainable params: 0\n","_________________________________________________________________\n"]}],"source":["\n","cnn_model.compile(optimizer=Adam(0.001), loss=BinaryCrossentropy(), metrics=['accuracy'])\n","cnn_model.summary()\n","\n","# SVM Model\n","s
…
